Number of parameters in generator: 24318595
Number of parameters in style_encoder: 16164480
Number of parameters in discriminator: 14341784
Number of parameters in mapping_network: 66112
Initializing embedding_matrix...
Initializing generator...
Initializing style_encoder...
Initializing discriminator...
Initializing mapping_network...
IMPAmodule(
  (embedding_matrix): Embedding(88, 1024)
  (generator): DataParallel(
    (module): Generator(
      (from_rgb): Conv2d(3, 64, kernel_size=(3, 3), stride=(1, 1), padding=(1, 1))
      (encode): ModuleList(
        (0): ResBlk(
          (actv): LeakyReLU(negative_slope=0.2)
          (conv1): Conv2d(64, 64, kernel_size=(3, 3), stride=(1, 1), padding=(1, 1))
          (conv2): Conv2d(64, 128, kernel_size=(3, 3), stride=(1, 1), padding=(1, 1))
          (norm1): InstanceNorm2d(64, eps=1e-05, momentum=0.1, affine=True, track_running_stats=False)
          (norm2): InstanceNorm2d(64, eps=1e-05, momentum=0.1, affine=True, track_running_stats=False)
          (conv1x1): Conv2d(64, 128, kernel_size=(1, 1), stride=(1, 1), bias=False)
        )
        (1): ResBlk(
          (actv): LeakyReLU(negative_slope=0.2)
          (conv1): Conv2d(128, 128, kernel_size=(3, 3), stride=(1, 1), padding=(1, 1))
          (conv2): Conv2d(128, 256, kernel_size=(3, 3), stride=(1, 1), padding=(1, 1))
          (norm1): InstanceNorm2d(128, eps=1e-05, momentum=0.1, affine=True, track_running_stats=False)
          (norm2): InstanceNorm2d(128, eps=1e-05, momentum=0.1, affine=True, track_running_stats=False)
          (conv1x1): Conv2d(128, 256, kernel_size=(1, 1), stride=(1, 1), bias=False)
        )
        (2): ResBlk(
          (actv): LeakyReLU(negative_slope=0.2)
          (conv1): Conv2d(256, 256, kernel_size=(3, 3), stride=(1, 1), padding=(1, 1))
          (conv2): Conv2d(256, 512, kernel_size=(3, 3), stride=(1, 1), padding=(1, 1))
          (norm1): InstanceNorm2d(256, eps=1e-05, momentum=0.1, affine=True, track_running_stats=False)
          (norm2): InstanceNorm2d(256, eps=1e-05, momentum=0.1, affine=True, track_running_stats=False)
          (conv1x1): Conv2d(256, 512, kernel_size=(1, 1), stride=(1, 1), bias=False)
        )
        (3-4): 2 x ResBlk(
          (actv): LeakyReLU(negative_slope=0.2)
          (conv1): Conv2d(512, 512, kernel_size=(3, 3), stride=(1, 1), padding=(1, 1))
          (conv2): Conv2d(512, 512, kernel_size=(3, 3), stride=(1, 1), padding=(1, 1))
          (norm1): InstanceNorm2d(512, eps=1e-05, momentum=0.1, affine=True, track_running_stats=False)
          (norm2): InstanceNorm2d(512, eps=1e-05, momentum=0.1, affine=True, track_running_stats=False)
        )
      )
      (decode): ModuleList(
        (0-1): 2 x AdainResBlk(
          (actv): LeakyReLU(negative_slope=0.2)
          (conv1): Conv2d(512, 512, kernel_size=(3, 3), stride=(1, 1), padding=(1, 1))
          (conv2): Conv2d(512, 512, kernel_size=(3, 3), stride=(1, 1), padding=(1, 1))
          (norm1): AdaIN(
            (norm): InstanceNorm2d(512, eps=1e-05, momentum=0.1, affine=False, track_running_stats=False)
            (fc): Linear(in_features=64, out_features=1024, bias=True)
          )
          (norm2): AdaIN(
            (norm): InstanceNorm2d(512, eps=1e-05, momentum=0.1, affine=False, track_running_stats=False)
            (fc): Linear(in_features=64, out_features=1024, bias=True)
          )
        )
        (2): AdainResBlk(
          (actv): LeakyReLU(negative_slope=0.2)
          (conv1): Conv2d(512, 256, kernel_size=(3, 3), stride=(1, 1), padding=(1, 1))
          (conv2): Conv2d(256, 256, kernel_size=(3, 3), stride=(1, 1), padding=(1, 1))
          (norm1): AdaIN(
            (norm): InstanceNorm2d(512, eps=1e-05, momentum=0.1, affine=False, track_running_stats=False)
            (fc): Linear(in_features=64, out_features=1024, bias=True)
          )
          (norm2): AdaIN(
            (norm): InstanceNorm2d(256, eps=1e-05, momentum=0.1, affine=False, track_running_stats=False)
            (fc): Linear(in_features=64, out_features=512, bias=True)
          )
          (conv1x1): Conv2d(512, 256, kernel_size=(1, 1), stride=(1, 1), bias=False)
        )
        (3): AdainResBlk(
          (actv): LeakyReLU(negative_slope=0.2)
          (conv1): Conv2d(256, 128, kernel_size=(3, 3), stride=(1, 1), padding=(1, 1))
          (conv2): Conv2d(128, 128, kernel_size=(3, 3), stride=(1, 1), padding=(1, 1))
          (norm1): AdaIN(
            (norm): InstanceNorm2d(256, eps=1e-05, momentum=0.1, affine=False, track_running_stats=False)
            (fc): Linear(in_features=64, out_features=512, bias=True)
          )
          (norm2): AdaIN(
            (norm): InstanceNorm2d(128, eps=1e-05, momentum=0.1, affine=False, track_running_stats=False)
            (fc): Linear(in_features=64, out_features=256, bias=True)
          )
          (conv1x1): Conv2d(256, 128, kernel_size=(1, 1), stride=(1, 1), bias=False)
        )
        (4): AdainResBlk(
          (actv): LeakyReLU(negative_slope=0.2)
          (conv1): Conv2d(128, 64, kernel_size=(3, 3), stride=(1, 1), padding=(1, 1))
          (conv2): Conv2d(64, 64, kernel_size=(3, 3), stride=(1, 1), padding=(1, 1))
          (norm1): AdaIN(
            (norm): InstanceNorm2d(128, eps=1e-05, momentum=0.1, affine=False, track_running_stats=False)
            (fc): Linear(in_features=64, out_features=256, bias=True)
          )
          (norm2): AdaIN(
            (norm): InstanceNorm2d(64, eps=1e-05, momentum=0.1, affine=False, track_running_stats=False)
            (fc): Linear(in_features=64, out_features=128, bias=True)
          )
          (conv1x1): Conv2d(128, 64, kernel_size=(1, 1), stride=(1, 1), bias=False)
        )
      )
      (to_rgb): Sequential(
        (0): InstanceNorm2d(64, eps=1e-05, momentum=0.1, affine=True, track_running_stats=False)
        (1): LeakyReLU(negative_slope=0.2)
        (2): Conv2d(64, 3, kernel_size=(1, 1), stride=(1, 1))
      )
    )
  )
  (style_encoder): DataParallel(
    (module): StyleEncoder(
      (conv): Sequential(
        (0): Conv2d(3, 64, kernel_size=(3, 3), stride=(1, 1), padding=(1, 1))
        (1): ResBlk(
          (actv): LeakyReLU(negative_slope=0.2)
          (conv1): Conv2d(64, 64, kernel_size=(3, 3), stride=(1, 1), padding=(1, 1))
          (conv2): Conv2d(64, 128, kernel_size=(3, 3), stride=(1, 1), padding=(1, 1))
          (conv1x1): Conv2d(64, 128, kernel_size=(1, 1), stride=(1, 1), bias=False)
        )
        (2): ResBlk(
          (actv): LeakyReLU(negative_slope=0.2)
          (conv1): Conv2d(128, 128, kernel_size=(3, 3), stride=(1, 1), padding=(1, 1))
          (conv2): Conv2d(128, 256, kernel_size=(3, 3), stride=(1, 1), padding=(1, 1))
          (conv1x1): Conv2d(128, 256, kernel_size=(1, 1), stride=(1, 1), bias=False)
        )
        (3): ResBlk(
          (actv): LeakyReLU(negative_slope=0.2)
          (conv1): Conv2d(256, 256, kernel_size=(3, 3), stride=(1, 1), padding=(1, 1))
          (conv2): Conv2d(256, 512, kernel_size=(3, 3), stride=(1, 1), padding=(1, 1))
          (conv1x1): Conv2d(256, 512, kernel_size=(1, 1), stride=(1, 1), bias=False)
        )
        (4): ResBlk(
          (actv): LeakyReLU(negative_slope=0.2)
          (conv1): Conv2d(512, 512, kernel_size=(3, 3), stride=(1, 1), padding=(1, 1))
          (conv2): Conv2d(512, 512, kernel_size=(3, 3), stride=(1, 1), padding=(1, 1))
        )
        (5): ResBlk(
          (actv): LeakyReLU(negative_slope=0.2)
          (conv1): Conv2d(512, 512, kernel_size=(3, 3), stride=(1, 1), padding=(1, 1))
          (conv2): Conv2d(512, 512, kernel_size=(3, 3), stride=(1, 1), padding=(1, 1))
        )
        (6): LeakyReLU(negative_slope=0.2)
        (7): Conv2d(512, 512, kernel_size=(4, 4), stride=(1, 1))
        (8): LeakyReLU(negative_slope=0.2)
      )
      (linear): Linear(in_features=512, out_features=64, bias=True)
    )
  )
  (discriminator): DataParallel(
    (module): Discriminator(
      (conv): Sequential(
        (0): Conv2d(3, 64, kernel_size=(3, 3), stride=(1, 1), padding=(1, 1))
        (1): ResBlk(
          (actv): LeakyReLU(negative_slope=0.2)
          (conv1): Conv2d(64, 64, kernel_size=(3, 3), stride=(1, 1), padding=(1, 1))
          (conv2): Conv2d(64, 128, kernel_size=(3, 3), stride=(1, 1), padding=(1, 1))
          (conv1x1): Conv2d(64, 128, kernel_size=(1, 1), stride=(1, 1), bias=False)
        )
        (2): ResBlk(
          (actv): LeakyReLU(negative_slope=0.2)
          (conv1): Conv2d(128, 128, kernel_size=(3, 3), stride=(1, 1), padding=(1, 1))
          (conv2): Conv2d(128, 256, kernel_size=(3, 3), stride=(1, 1), padding=(1, 1))
          (conv1x1): Conv2d(128, 256, kernel_size=(1, 1), stride=(1, 1), bias=False)
        )
        (3): ResBlk(
          (actv): LeakyReLU(negative_slope=0.2)
          (conv1): Conv2d(256, 256, kernel_size=(3, 3), stride=(1, 1), padding=(1, 1))
          (conv2): Conv2d(256, 512, kernel_size=(3, 3), stride=(1, 1), padding=(1, 1))
          (conv1x1): Conv2d(256, 512, kernel_size=(1, 1), stride=(1, 1), bias=False)
        )
        (4): ResBlk(
          (actv): LeakyReLU(negative_slope=0.2)
          (conv1): Conv2d(512, 512, kernel_size=(3, 3), stride=(1, 1), padding=(1, 1))
          (conv2): Conv2d(512, 512, kernel_size=(3, 3), stride=(1, 1), padding=(1, 1))
        )
        (5): ResBlk(
          (actv): LeakyReLU(negative_slope=0.2)
          (conv1): Conv2d(512, 512, kernel_size=(3, 3), stride=(1, 1), padding=(1, 1))
          (conv2): Conv2d(512, 512, kernel_size=(3, 3), stride=(1, 1), padding=(1, 1))
        )
        (6): LeakyReLU(negative_slope=0.2, inplace=True)
        (7): Conv2d(512, 512, kernel_size=(3, 3), stride=(1, 1))
        (8): LeakyReLU(negative_slope=0.2, inplace=True)
        (9): Conv2d(512, 88, kernel_size=(1, 1), stride=(1, 1))
      )
    )
  )
  (mapping_network): DataParallel(
    (module): MappingNetwork(
      (mapping_network): MappingNetworkSingleStyle(
        (layers): Sequential(
          (0): Linear(in_features=1032, out_features=64, bias=True)
        )
      )
    )
  )
)
Loading checkpoint from /home/icb/alessandro.palma/environment/IMPA/IMPA/project_folder/experiments/20240902_fc588378-f1f0-4cfb-84f5-92ed48f31a44_bbbc021_unannotated_large/checkpoint/000200_nets.ckpt...
/home/icb/alessandro.palma/environment/IMPA/IMPA/project_folder/experiments/20240902_fc588378-f1f0-4cfb-84f5-92ed48f31a44_bbbc021_unannotated_large/checkpoint/000200_nets.ckpt
…
