…
ore', 'environment.yml', 'notebooks', 'checkpoints', 'README.md', 'cellprofiler_feature_names', 'tutorial', 'project_folder', '__pycache__', 'setup.py', 'IMPA.egg-info', '__init__.py', '.ipynb_checkpoints', 'config_hydra', '.git']
Number of parameters in generator: 24318595
Number of parameters in style_encoder: 14329472
Number of parameters in discriminator: 14309978
Number of parameters in mapping_network: 66624
Initializing embedding_matrix...
Initializing generator...
Initializing style_encoder...
Initializing discriminator...
Initializing mapping_network...
IMPAmodule(
  (embedding_matrix): Embedding(26, 1024)
  (generator): DataParallel(
    (module): Generator(
      (from_rgb): Conv2d(3, 64, kernel_size=(3, 3), stride=(1, 1), padding=(1, 1))
      (encode): ModuleList(
        (0): ResBlk(
          (actv): LeakyReLU(negative_slope=0.2)
          (conv1): Conv2d(64, 64, kernel_size=(3, 3), stride=(1, 1), padding=(1, 1))
          (conv2): Conv2d(64, 128, kernel_size=(3, 3), stride=(1, 1), padding=(1, 1))
          (norm1): InstanceNorm2d(64, eps=1e-05, momentum=0.1, affine=True, track_running_stats=False)
          (norm2): InstanceNorm2d(64, eps=1e-05, momentum=0.1, affine=True, track_running_stats=False)
          (conv1x1): Conv2d(64, 128, kernel_size=(1, 1), stride=(1, 1), bias=False)
        )
        (1): ResBlk(
          (actv): LeakyReLU(negative_slope=0.2)
          (conv1): Conv2d(128, 128, kernel_size=(3, 3), stride=(1, 1), padding=(1, 1))
          (conv2): Conv2d(128, 256, kernel_size=(3, 3), stride=(1, 1), padding=(1, 1))
          (norm1): InstanceNorm2d(128, eps=1e-05, momentum=0.1, affine=True, track_running_stats=False)
          (norm2): InstanceNorm2d(128, eps=1e-05, momentum=0.1, affine=True, track_running_stats=False)
          (conv1x1): Conv2d(128, 256, kernel_size=(1, 1), stride=(1, 1), bias=False)
        )
        (2): ResBlk(
          (actv): LeakyReLU(negative_slope=0.2)
          (conv1): Conv2d(256, 256, kernel_size=(3, 3), stride=(1, 1), padding=(1, 1))
          (conv2): Conv2d(256, 512, kernel_size=(3, 3), stride=(1, 1), padding=(1, 1))
          (norm1): InstanceNorm2d(256, eps=1e-05, momentum=0.1, affine=True, track_running_stats=False)
          (norm2): InstanceNorm2d(256, eps=1e-05, momentum=0.1, affine=True, track_running_stats=False)
          (conv1x1): Conv2d(256, 512, kernel_size=(1, 1), stride=(1, 1), bias=False)
        )
        (3-4): 2 x ResBlk(
          (actv): LeakyReLU(negative_slope=0.2)
          (conv1): Conv2d(512, 512, kernel_size=(3, 3), stride=(1, 1), padding=(1, 1))
          (conv2): Conv2d(512, 512, kernel_size=(3, 3), stride=(1, 1), padding=(1, 1))
          (norm1): InstanceNorm2d(512, eps=1e-05, momentum=0.1, affine=True, track_running_stats=False)
          (norm2): InstanceNorm2d(512, eps=1e-05, momentum=0.1, affine=True, track_running_stats=False)
        )
      )
      (decode): ModuleList(
        (0-1): 2 x AdainResBlk(
          (actv): LeakyReLU(negative_slope=0.2)
          (conv1): Conv2d(512, 512, kernel_size=(3, 3), stride=(1, 1), padding=(1, 1))
          (conv2): Conv2d(512, 512, kernel_size=(3, 3), stride=(1, 1), padding=(1, 1))
          (norm1): AdaIN(
            (norm): InstanceNorm2d(512, eps=1e-05, momentum=0.1, affine=False, track_running_stats=False)
            (fc): Linear(in_features=64, out_features=1024, bias=True)
          )
          (norm2): AdaIN(
            (norm): InstanceNorm2d(512, eps=1e-05, momentum=0.1, affine=False, track_running_stats=False)
            (fc): Linear(in_features=64, out_features=1024, bias=True)
          )
        )
        (2): AdainResBlk(
          (actv): LeakyReLU(negative_slope=0.2)
          (conv1): Conv2d(512, 256, kernel_size=(3, 3), stride=(1, 1), padding=(1, 1))
          (conv2): Conv2d(256, 256, kernel_size=(3, 3), stride=(1, 1), padding=(1, 1))
          (norm1): AdaIN(
            (norm): InstanceNorm2d(512, eps=1e-05, momentum=0.1, affine=False, track_running_stats=False)
            (fc): Linear(in_features=64, out_features=1024, bias=True)
          )
          (norm2): AdaIN(
            (norm): InstanceNorm2d(256, eps=1e-05, momentum=0.1, affine=False, track_running_stats=False)
            (fc): Linear(in_features=64, out_features=512, bias=True)
          )
          (conv1x1): Conv2d(512, 256, kernel_size=(1, 1), stride=(1, 1), bias=False)
        )
        (3): AdainResBlk(
          (actv): LeakyReLU(negative_slope=0.2)
          (conv1): Conv2d(256, 128, kernel_size=(3, 3), stride=(1, 1), padding=(1, 1))
          (conv2): Conv2d(128, 128, kernel_size=(3, 3), stride=(1, 1), padding=(1, 1))
          (norm1): AdaIN(
            (norm): InstanceNorm2d(256, eps=1e-05, momentum=0.1, affine=False, track_running_stats=False)
            (fc): Linear(in_features=64, out_features=512, bias=True)
          )
          (norm2): AdaIN(
            (norm): InstanceNorm2d(128, eps=1e-05, momentum=0.1, affine=False, track_running_stats=False)
            (fc): Linear(in_features=64, out_features=256, bias=True)
          )
          (conv1x1): Conv2d(256, 128, kernel_size=(1, 1), stride=(1, 1), bias=False)
        )
        (4): AdainResBlk(
          (actv): LeakyReLU(negative_slope=0.2)
          (conv1): Conv2d(128, 64, kernel_size=(3, 3), stride=(1, 1), padding=(1, 1))
          (conv2): Conv2d(64, 64, kernel_size=(3, 3), stride=(1, 1), padding=(1, 1))
          (norm1): AdaIN(
            (norm): InstanceNorm2d(128, eps=1e-05, momentum=0.1, affine=False, track_running_stats=False)
            (fc): Linear(in_features=64, out_features=256, bias=True)
          )
          (norm2): AdaIN(
            (norm): InstanceNorm2d(64, eps=1e-05, momentum=0.1, affine=False, track_running_stats=False)
            (fc): Linear(in_features=64, out_features=128, bias=True)
          )
          (conv1x1): Conv2d(128, 64, kernel_size=(1, 1), stride=(1, 1), bias=False)
        )
      )
      (to_rgb): Sequential(
        (0): InstanceNorm2d(64, eps=1e-05, momentum=0.1, affine=True, track_running_stats=False)
        (1): LeakyReLU(negative_slope=0.2)
        (2): Conv2d(64, 3, kernel_size=(1, 1), stride=(1, 1))
      )
    )
  )
  (style_encoder): DataParallel(
    (module): StyleEncoder(
      (conv): Sequential(
        (0): Conv2d(3, 64, kernel_size=(3, 3), stride=(1, 1), padding=(1, 1))
        (1): ResBlk(
          (actv): LeakyReLU(negative_slope=0.2)
          (conv1): Conv2d(64, 64, kernel_size=(3, 3), stride=(1, 1), padding=(1, 1))
          (conv2): Conv2d(64, 128, kernel_size=(3, 3), stride=(1, 1), padding=(1, 1))
          (conv1x1): Conv2d(64, 128, kernel_size=(1, 1), stride=(1, 1), bias=False)
        )
        (2): ResBlk(
          (actv): LeakyReLU(negative_slope=0.2)
          (conv1): Conv2d(128, 128, kernel_size=(3, 3), stride=(1, 1), padding=(1, 1))
          (conv2): Conv2d(128, 256, kernel_size=(3, 3), stride=(1, 1), padding=(1, 1))
          (conv1x1): Conv2d(128, 256, kernel_size=(1, 1), stride=(1, 1), bias=False)
        )
        (3): ResBlk(
          (actv): LeakyReLU(negative_slope=0.2)
          (conv1): Conv2d(256, 256, kernel_size=(3, 3), stride=(1, 1), padding=(1, 1))
          (conv2): Conv2d(256, 512, kernel_size=(3, 3), stride=(1, 1), padding=(1, 1))
          (conv1x1): Conv2d(256, 512, kernel_size=(1, 1), stride=(1, 1), bias=False)
        )
        (4): ResBlk(
          (actv): LeakyReLU(negative_slope=0.2)
          (conv1): Conv2d(512, 512, kernel_size=(3, 3), stride=(1, 1), padding=(1, 1))
          (conv2): Conv2d(512, 512, kernel_size=(3, 3), stride=(1, 1), padding=(1, 1))
        )
        (5): ResBlk(
          (actv): LeakyReLU(negative_slope=0.2)
          (conv1): Conv2d(512, 512, kernel_size=(3, 3), stride=(1, 1), padding=(1, 1))
          (conv2): Conv2d(512, 512, kernel_size=(3, 3), stride=(1, 1), padding=(1, 1))
        )
        (6): LeakyReLU(negative_slope=0.2)
        (7): Conv2d(512, 512, kernel_size=(3, 3), stride=(1, 1))
        (8): LeakyReLU(negative_slope=0.2)
      )
      (linear): Linear(in_features=512, out_features=64, bias=True)
    )
  )
  (discriminator): DataParallel(
    (module): Discriminator(
      (conv_blocks): Sequential(
        (0): Conv2d(3, 64, kernel_size=(3, 3), stride=(1, 1), padding=(1, 1))
        (1): ResBlk(
          (actv): LeakyReLU(negative_slope=0.2)
          (conv1): Conv2d(64, 64, kernel_size=(3, 3), stride=(1, 1), padding=(1, 1))
          (conv2): Conv2d(64, 128, kernel_size=(3, 3), stride=(1, 1), padding=(1, 1))
          (conv1x1): Conv2d(64, 128, kernel_size=(1, 1), stride=(1, 1), bias=False)
        )
        (2): ResBlk(
          (actv): LeakyReLU(negative_slope=0.2)
          (conv1): Conv2d(128, 128, kernel_size=(3, 3), stride=(1, 1), padding=(1, 1))
          (conv2): Conv2d(128, 256, kernel_size=(3, 3), stride=(1, 1), padding=(1, 1))
          (conv1x1): Conv2d(128, 256, kernel_size=(1, 1), stride=(1, 1), bias=False)
        )
        (3): ResBlk(
          (actv): LeakyReLU(negative_slope=0.2)
          (conv1): Conv2d(256, 256, kernel_size=(3, 3), stride=(1, 1), padding=(1, 1))
          (conv2): Conv2d(256, 512, kernel_size=(3, 3), stride=(1, 1), padding=(1, 1))
          (conv1x1): Conv2d(256, 512, kernel_size=(1, 1), stride=(1, 1), bias=False)
        )
        (4): ResBlk(
          (actv): LeakyReLU(negative_slope=0.2)
          (conv1): Conv2d(512, 512, kernel_size=(3, 3), stride=(1, 1), padding=(1, 1))
          (conv2): Conv2d(512, 512, kernel_size=(3, 3), stride=(1, 1), padding=(1, 1))
        )
        (5): ResBlk(
          (actv): LeakyReLU(negative_slope=0.2)
          (conv1): Conv2d(512, 512, kernel_size=(3, 3), stride=(1, 1), padding=(1, 1))
          (conv2): Conv2d(512, 512, kernel_size=(3, 3), stride=(1, 1), padding=(1, 1))
        )
        (6): LeakyReLU(negative_slope=0.2, inplace=True)
        (7): Conv2d(512, 512, kernel_size=(3, 3), stride=(1, 1))
        (8): LeakyReLU(negative_slope=0.2, inplace=True)
      )
      (head): Conv2d(512, 26, kernel_size=(1, 1), stride=(1, 1))
    )
  )
  (mapping_network): DataParallel(
    (module): MappingNetwork(
      (mapping_network): MappingNetworkSingleStyle(
        (layers): Sequential(
          (0): Linear(in_features=1040, out_features=64, bias=True)
        )
      )
    )
  )
)
Training: |          | 0/? [00:00<?, ?it/s]Training:   0%|          | 0/194 [00:00<?, ?it/s]Epoch 0:   0%|          | 0/194 [00:00<?, ?it/s] Epoch 0:   1%|          | 1/194 [00:05<17:25,  0.18it/s]Epoch 0:   1%|          | 1/194 [00:05<17:26,  0.18it/s, v_num=kvjy]Epoch 0:   1%|          | 2/194 [00:05<09:27,  0.34it
…
